models/old_model.pth (torch, 3653 bytes, 3 tensors)

0.weight f4 [100, 1]
0	0x3f34c6f1	0.7061606
1	0x3faba0ba	1.3408425
2	0xbe372d26	-0.17888317
3	0x3f8c55a7	1.0963639
4	0xbf72a11f	-0.947771
5	0x3e41e506	0.18935022
6	0xbf0dcc45	-0.55389816
7	0x3f08f9bf	0.5350608
8	0x3f5f7057	0.8728079
9	0xbf3b1253	-0.73074836
10	0x3f9c1bba	1.2195961
11	0x3f1cf960	0.61318016
12	0x3f4951de	0.78640544
13	0x3e0aae50	0.13543057
14	0x3f08f7d4	0.53503156
15	0xbe023db7	-0.12718855
16	0x3fae5914	1.3620934
17	0x3e175b38	0.14780891
18	0xbee00781	-0.43755725
19	0x3e70d8c3	0.23520188
20	0xbf7c3068	-0.9851136
21	0xbdd67ab4	-0.104726225
22	0xbf808931	-1.0041867
23	0x3f3b5cbc	0.73188376
24	0xbf6afa4c	-0.9178817
25	0xbed6c549	-0.41947392
26	0xbe77ea2f	-0.24210428
27	0xbf123bf7	-0.5712275
28	0xbdd2d6d6	-0.10294883
29	0xbfb24d5c	-1.3929858
30	0x3f6f3d95	0.9345334
31	0xbf8f2ada	-1.1184952
32	0x3f64ec2f	0.8942289
33	0x3ee3c04a	0.44482642
34	0xbe9153ad	-0.28384152
35	0x3f9c51f1	1.2212507
36	0x3e1f9758	0.15585077
37	0x3f4335a7	0.7625374
38	0xbce01a53	-0.027356302
39	0xbf70b6d6	-0.94028986
40	0x3f29b0c1	0.6628533
41	0xbe916d2b	-0.284036
42	0x3f73bb32	0.9520751
43	0x3f59e143	0.8510935
44	0x3fb6b490	1.4273853
45	0xbf69fff7	-0.91406196
46	0x3f33ea04	0.70278955
47	0x3f0570fd	0.5212553
48	0x3f6cba55	0.9247182
49	0xbf11acd9	-0.5690437
50	0xbfc6c20c	-1.5527968
51	0xbf53abae	-0.8268384
52	0xbfb54c5a	-1.4163926
53	0x3f493852	0.7860156
54	0x3f185587	0.59505504
55	0x3ec18563	0.37797078
56	0x3f29791a	0.6620041
57	0xbec7797c	-0.38959873
58	0x3f9cac5a	1.2240098
59	0xbf2ed9f0	-0.68301296
60	0x3e9c80e2	0.3056708
61	0xbf93c73b	-1.1545175
62	0x3f39e1a0	0.726099
63	0xbebb5ca2	-0.3659411
64	0x3f365fcc	0.71239924
65	0xbe20c20e	-0.15699026
66	0x3fd47965	1.6599547
67	0xbf9471bb	-1.1597208
68	0xbf982bfe	-1.1888425
69	0xbf3d9888	-0.7406087
70	0x3f973e69	1.1815921
71	0x3e857f0d	0.26073495
72	0x3faebe77	1.3651875
73	0xbf4748b3	-0.77845305
74	0xbf6cef0f	-0.92552274
75	0xbfb657d6	-1.4245555
76	0xbf478ee2	-0.77952397
77	0x3f63e3a1	0.8901921
78	0x3f2f5c3d	0.6850012
79	0x3f47cd9f	0.7804813
80	0xbf8d34cf	-1.1031741
81	0xbf914370	-1.1348705
82	0x3f9cacd1	1.2240239
83	0xbf9c8695	-1.2228571
84	0x3f801de8	1.0009127
85	0xbf2ee2a9	-0.68314606
86	0x3f136a2a	0.5758387
87	0xbf39b684	-0.7254412
88	0xbee2c133	-0.44288024
89	0x3f84c03b	1.0371164
90	0x3fa22321	1.266697
91	0xbfa0ef38	-1.2573004
92	0x3f1435ac	0.57894397
93	0x3f222b7a	0.6334759
94	0xbfbcee45	-1.4760214
95	0xbf8f8eef	-1.1215495
96	0x3f86a42b	1.051885
97	0xbf8c1144	-1.0942769
98	0xbf638734	-0.8887818
99	0xbfc393c1	-1.5279466

0.bias f4 [100]
0	0xbf2299ce	-0.6351594
1	0x3ece4292	0.40285164
2	0xbe3e5e71	-0.18590714
3	0xbefd5e01	-0.49485782
4	0x3e92f441	0.28701976
5	0xbf31ab67	-0.69402164
6	0xbf46fae9	-0.7772661
7	0xbf1acebd	-0.6047171
8	0xbf615206	-0.8801578
9	0xbf22adb4	-0.635463
10	0x3f82ec48	1.0228357
11	0x3e84bb44	0.25924122
12	0x3e91e249	0.28492954
13	0xbf6ec466	-0.9326843
14	0xbf1805d9	-0.5938392
15	0xbeb18ed8	-0.34679294
16	0x3ed633bc	0.41836345
17	0xbf614286	-0.8799213
18	0xbeeb2e08	-0.45933557
19	0xbf1e4a98	-0.6183257
20	0x3e87f2d3	0.26552448
21	0xbec4edc7	-0.3846266
22	0x3e7a9c91	0.24473788
23	0xbf15d475	-0.5852731
24	0xbf08b0cf	-0.5339479
25	0xbf1fc1dd	-0.62405187
26	0xbec32c5d	-0.38119784
27	0xbf51ab62	-0.81902134
28	0x3f55d273	0.83524245
29	0x3e71a42f	0.23597787
30	0x3f574b8e	0.8409966
31	0x3eb59092	0.3546186
32	0xbf338f9c	-0.70141006
33	0x3f2f2914	0.68422055
34	0xbea13f36	-0.3149354
35	0x3e6b2a48	0.22965348
36	0xbf547f80	-0.8300705
37	0xbf852f2a	-1.0405018
38	0x3e8ede03	0.27903756
39	0x3e511a6e	0.20420238
40	0x3ed01358	0.40639758
41	0xbf4ee7e6	-0.808226
42	0x3f2f5797	0.68493026
43	0xbf470200	-0.77737427
44	0x3e972310	0.29518938
45	0x3ec659a7	0.38740274
46	0x3efe882c	0.49713266
47	0x3f4bd8c0	0.7962761
48	0x3f5bcf65	0.85863334
49	0xbf552124	-0.83253694
50	0x3f023627	0.5086388
51	0x3e0b84e7	0.13624917
52	0x3e9845ac	0.29740655
53	0xbf4891cd	-0.78347474
54	0x3f5dde95	0.8666776
55	0xbf4558c0	-0.77088547
56	0x3f0947d6	0.5362524
57	0x3eb9258d	0.3616146
58	0x3ef60b1c	0.4805535
59	0xbf11002f	-0.56640905
60	0x3f671fcc	0.90282893
61	0x3eda72b1	0.42665628
62	0x3e8a14b4	0.2696892
63	0xbf5c01ec	-0.8594043
64	0x3ee184b2	0.4404655
65	0xbe4bd6ff	-0.19906233
66	0x3e914eca	0.28380424
67	0x3f7018c7	0.9378781
68	0x3ee5ae34	0.4485947
69	0xbebf6bf2	-0.37387043
70	0x3df01ca6	0.11724214
71	0xbe05372e	-0.1300933
72	0x3f29da43	0.66348666
73	0xbe9946e0	-0.29936886
74	0xbf2410de	-0.6408824
75	0x3e7bf96b	0.24606864
76	0xbf207eb9	-0.62693363
77	0x3edb4a05	0.4282991
78	0x3f4443ea	0.7666613
79	0xbf7e4eaf	-0.9933881
80	0x3ee2db0f	0.44307753
81	0x3f29dc83	0.663521
82	0x3ecba425	0.3977367
83	0x3e6b23bb	0.22962849
84	0x3f030a33	0.5118744
85	0x3f0f0d8f	0.55880064
86	0x3eae3224	0.3402263
87	0xbe65c0cb	-0.22436826
88	0xbea85dcf	-0.3288407
89	0x3e9ca2f8	0.30593085
90	0x3e94bea2	0.2905169
91	0x3e83234b	0.25612864
92	0x3f1f9345	0.6233409
93	0x3f595414	0.8489392
94	0x3e95b89e	0.29242414
95	0x3e6787c4	0.22610384
96	0x3e4af8fe	0.19821545
97	0x3e8cd9f3	0.27510032
98	0x3ed24bcb	0.4107345
99	0x3f06deea	0.5268389

2.weight f4 [1, 100]
0	0xbcf0588f	-0.029339103
1	0x3e50c4a3	0.20387511
2	0x3d06df8a	0.032928027
3	0x3e0e0a1d	0.13871045
4	0xbed70496	-0.41995686
5	0xbd502448	-0.05081585
6	0xbde924cc	-0.113839716
7	0xbd17dd74	-0.03707643
8	0x3cce1fec	0.025161706
9	0xbcfe1429	-0.031015472
10	0x3e83d443	0.2574788
11	0x3ea6305a	0.32458764
12	0x3de40300	0.11133385
13	0xbd76516d	-0.060136247
14	0x3d18ae2f	0.03727549
15	0x3db3a174	0.08771029
16	0x3e8ec7a9	0.27886704
17	0xbcd4261a	-0.025897074
18	0xbc6b811a	-0.014374042
19	0xbcad9ae8	-0.02119203
20	0xbed4b243	-0.41542253
21	0x3d7cc9dd	0.06171595
22	0xbee98604	-0.45610058
23	0x3d3783fa	0.044803597
24	0xbe467c22	-0.1938329
25	0x3cc67277	0.024224503
26	0x3d17aad6	0.037028156
27	0xbc073984	-0.008253459
28	0xbd853080	-0.06503391
29	0xbedabab8	-0.4272058
30	0x3dc1a005	0.094543494
31	0xbe344a2c	-0.1760642
32	0x3dfffdc7	0.12499576
33	0x3e7ed203	0.248848
34	0x3a601c2a	0.00085491186
35	0x3ed4bc7e	0.41550058
36	0xba805acd	-0.0009792686
37	0xbcec568a	-0.028849859
38	0xbd166123	-0.03671373
39	0xbf37b16e	-0.7175511
40	0x3e8b4403	0.27200326
41	0xbd89c812	-0.067276135
42	0x3e3e9ae0	0.18613768
43	0x3b7c6cd6	0.003851702
44	0x3ec4be8f	0.38426635
45	0xbeb9fc91	-0.36325505
46	0x3df36cd8	0.11885995
47	0x3e47555b	0.19466154
48	0x3e1bc35f	0.15211247
49	0x3c903176	0.01760171
50	0xbea1f6c8	-0.31633592
51	0xbf0953e1	-0.53643614
52	0xbec3e46e	-0.38260216
53	0x3c1a183d	0.009405193
54	0x3de8c2a9	0.113652535
55	0xbd877305	-0.06613735
56	0x3e8739d8	0.2641132
57	0xbe92ebbe	-0.28695482
58	0x3e93360f	0.2875218
59	0xbca968ac	-0.020679794
60	0x3e2aaa6d	0.16666575
61	0xbeb97bce	-0.36227268
62	0x3eb2922e	0.3487715
63	0xbd8840fc	-0.0665302
64	0x3e87a5dd	0.2649373
65	0x3d4b9a00	0.049707413
66	0x3eb52f96	0.35387868
67	0xbe8009cb	-0.2500747
68	0xbea3b1dc	-0.31971633
69	0xbe406bd4	-0.18791133
70	0x3e66b8b2	0.22531393
71	0xbcbb7df5	-0.02288721
72	0x3e904dd5	0.2818438
73	0xbcb08563	-0.021547979
74	0x3ca28633	0.019839382
75	0xbee3734f	-0.4442391
76	0xbe27452b	-0.16334979
77	0x3e874e27	0.26426813
78	0x3e771a7c	0.24131197
79	0xbd4c62b1	-0.049898807
80	0xbea3cc08	-0.319916
81	0xbea2371c	-0.3168267
82	0x3e8dd91b	0.277047
83	0xbf43dd0e	-0.7650918
84	0x3e2ba499	0.16762008
85	0xbe993b54	-0.29928076
86	0x3db74c26	0.08950071
87	0xbcb35905	-0.021893034
88	0x3c7c24c2	0.015389623
89	0x3ea58764	0.32329857
90	0x3f402dd0	0.75069904
91	0xbf6fb255	-0.9363149
92	0x3d9a8235	0.07544366
93	0x3d794177	0.060853448
94	0xbeb2894b	-0.3487037
95	0xbf0442fe	-0.5166472
96	0x3e16d586	0.1472989
97	0xbee8fedd	-0.45506945
98	0xbea96321	-0.33083442
99	0xbea0d144	-0.31409657
